…
_________________________________________________________________
 Layer (type)                Output Shape              Param #   
=================================================================
 conv3d (Conv3D)             (None, 128, 128, 128, 32  3488      
                             )                                   
                                                                 
 leaky_re_lu (LeakyReLU)     (None, 128, 128, 128, 32  0         
                             )                                   
                                                                 
 max_pooling3d (MaxPooling3D  (None, 64, 64, 64, 32)   0         
 )                                                               
                                                                 
 conv3d_1 (Conv3D)           (None, 64, 64, 64, 64)    55360     
                                                                 
 leaky_re_lu_1 (LeakyReLU)   (None, 64, 64, 64, 64)    0         
                                                                 
 max_pooling3d_1 (MaxPooling  (None, 32, 32, 32, 64)   0         
 3D)                                                             
                                                                 
 conv3d_2 (Conv3D)           (None, 32, 32, 32, 128)   221312    
                                                                 
 leaky_re_lu_2 (LeakyReLU)   (None, 32, 32, 32, 128)   0         
                                                                 
 max_pooling3d_2 (MaxPooling  (None, 16, 16, 16, 128)  0         
 3D)                                                             
                                                                 
 conv3d_3 (Conv3D)           (None, 16, 16, 16, 256)   884992    
                                                                 
 leaky_re_lu_3 (LeakyReLU)   (None, 16, 16, 16, 256)   0         
                                                                 
 max_pooling3d_3 (MaxPooling  (None, 8, 8, 8, 256)     0         
 3D)                                                             
                                                                 
 conv3d_4 (Conv3D)           (None, 8, 8, 8, 512)      3539456   
                                                                 
 leaky_re_lu_4 (LeakyReLU)   (None, 8, 8, 8, 512)      0         
                                                                 
 max_pooling3d_4 (MaxPooling  (None, 4, 4, 4, 512)     0         
 3D)                                                             
                                                                 
 flatten (Flatten)           (None, 32768)             0         
                                                                 
 dense (Dense)               (None, 128)               4194432   
                                                                 
 leaky_re_lu_5 (LeakyReLU)   (None, 128)               0         
                                                                 
 dropout (Dropout)           (None, 128)               0         
                                                                 
 dense_1 (Dense)             (None, 64)                8256      
                                                                 
 leaky_re_lu_6 (LeakyReLU)   (None, 64)                0         
                                                                 
 dropout_1 (Dropout)         (None, 64)                0         
                                                                 
 dense_2 (Dense)             (None, 4)                 260       
                                                                 
 lambda (Lambda)             (None, 4)                 0         
                                                                 
=================================================================
Total params: 8,907,556
Trainable params: 8,907,556
Non-trainable params: 0
_________________________________________________________________
:::MLLOG {"namespace": "", "time_ms": 1663254743453, "event_type": "POINT_IN_TIME", "key": "opt_base_learning_rate", "value": 0.022, "metadata": {"file": "/lus/grand/projects/datascience/hzheng/mlperf-2022/optimized-hpc/cosmoflow/tensorflow/utils/optimizers.py", "lineno": 89}}
…
